…
 /usr/local/lib/python3.8/dist-packages/cv2/../../lib64:/usr/local/lib/python3.8/dist-packages/cv2/../../lib64:/usr/lib64-nvidia\n","2023-02-25 23:49:14.989569: W tensorflow/compiler/tf2tensorrt/utils/py_utils.cc:38] TF-TRT Warning: Cannot dlopen some TensorRT libraries. If you would like to use Nvidia GPU with TensorRT, please make sure the missing libraries mentioned above are installed properly.\n","Overriding model.yaml nc=80 with nc=2\n","\n","                 from  n    params  module                                  arguments                     \n","  0                -1  1      3520  models.common.Conv                      [3, 32, 6, 2, 2]              \n","  1                -1  1     18560  models.common.Conv                      [32, 64, 3, 2]                \n","  2                -1  1     18816  models.common.C3                        [64, 64, 1]                   \n","  3                -1  1     73984  models.common.Conv                      [64, 128, 3, 2]               \n","  4                -1  2    115712  models.common.C3                        [128, 128, 2]                 \n","  5                -1  1    295424  models.common.Conv                      [128, 256, 3, 2]              \n","  6                -1  3    625152  models.common.C3                        [256, 256, 3]                 \n","  7                -1  1    885504  models.common.Conv                      [256, 384, 3, 2]              \n","  8                -1  1    665856  models.common.C3                        [384, 384, 1]                 \n","  9                -1  1   1770496  models.common.Conv                      [384, 512, 3, 2]              \n"," 10                -1  1   1182720  models.common.C3                        [512, 512, 1]                 \n"," 11                -1  1    656896  models.common.SPPF                      [512, 512, 5]                 \n"," 12                -1  1    197376  models.common.Conv                      [512, 384, 1, 1]              \n"," 13                -1  1         0  torch.nn.modules.upsampling.Upsample    [None, 2, 'nearest']          \n"," 14           [-1, 8]  1         0  models.common.Concat                    [1]                           \n"," 15                -1  1    813312  models.common.C3                        [768, 384, 1, False]          \n"," 16                -1  1     98816  models.common.Conv                      [384, 256, 1, 1]              \n"," 17                -1  1         0  torch.nn.modules.upsampling.Upsample    [None, 2, 'nearest']          \n"," 18           [-1, 6]  1         0  models.common.Concat                    [1]                           \n"," 19                -1  1    361984  models.common.C3                        [512, 256, 1, False]          \n"," 20                -1  1     33024  models.common.Conv                      [256, 128, 1, 1]              \n"," 21                -1  1         0  torch.nn.modules.upsampling.Upsample    [None, 2, 'nearest']          \n"," 22           [-1, 4]  1         0  models.common.Concat                    [1]                           \n"," 23                -1  1     90880  models.common.C3                        [256, 128, 1, False]          \n"," 24                -1  1    147712  models.common.Conv                      [128, 128, 3, 2]              \n"," 25          [-1, 20]  1         0  models.common.Concat                    [1]                           \n"," 26                -1  1    296448  models.common.C3                        [256, 256, 1, False]          \n"," 27                -1  1    590336  models.common.Conv                      [256, 256, 3, 2]              \n"," 28          [-1, 16]  1         0  models.common.Concat                    [1]                           \n"," 29                -1  1    715008  models.common.C3                        [512, 384, 1, False]          \n"," 30                -1  1   1327872  models.common.Conv                      [384, 384, 3, 2]              \n"," 31          [-1, 12]  1         0  models.common.Concat                    [1]                           \n"," 32                -1  1   1313792  models.common.C3                        [768, 512, 1, False]          \n"," 33  [23, 26, 29, 32]  1     26964  models.yolo.Detect                      [2, [[19, 27, 44, 40, 38, 94], [96, 68, 86, 152, 180, 137], [140, 301, 303, 264, 238, 542], [436, 615, 739, 380, 925, 792]], [128, 256, 384, 512]]\n","Model summary: 281 layers, 12326164 parameters, 12326164 gradients, 16.3 GFLOPs\n","\n","Transferred 451/459 items from yolov5s6.pt\n","\u0
…
